model/mnist_model.pkl (torch, 260464 bytes, 8 tensors)

weight f4 [32, 1, 5, 5]
0	0xbf315cbb	-0.6928212
1	0xbfb4847a	-1.4102929
2	0xbf897dc7	-1.0741509
3	0x3d91d62a	0.07120927
4	0xbed22d2f	-0.41050097
5	0xbdfb7e47	-0.12279945
6	0xbea746e5	-0.32671276
7	0xbfae07da	-1.3596146
8	0xbf8c84b9	-1.0978004
9	0x3f954827	1.1662644
10	0x3f27351a	0.653154
11	0xbec10f9c	-0.37707222
12	0xbffc3f6e	-1.9706857
13	0xbea7d896	-0.3278243
14	0x3f7fc755	0.9991353
15	0x3f65f006	0.8981937
16	0xbe90f2ff	-0.2831039
17	0xc00331ab	-2.0499065
18	0xbeb5d388	-0.35512948
19	0x3ebd1605	0.36930862
20	0x3f5418c3	0.82850283
21	0xbe8ab725	-0.27092853
22	0xbfbf3599	-1.4938232
23	0xbfca5091	-1.5805837
24	0xbe62dd62	-0.22154763
25	0xbf886ccf	-1.0658206
26	0xbf50c58c	-0.8155143
27	0xbf701d67	-0.93794864
28	0xbf896d62	-1.0736506
29	0x3f8b9ec1	1.0907823
30	0xbf3db87f	-0.74109644
31	0x3d585cd3	0.0528229
32	0x3f0f2867	0.55921024
33	0x4000a9ef	2.010372
34	0x3fd97f7e	1.6992033
35	0x3e8137b0	0.252378
36	0x3f855f57	1.041972
37	0x3f5e0c49	0.86737496
38	0xbf5eb1e0	-0.86990166
39	0xbe8b7c0c	-0.27243078
40	0x3edc33f8	0.430084
41	0xbdf54648	-0.11976296
42	0xbf61b7e0	-0.88171196
43	0xbe9e7633	-0.30949554
44	0xbf225870	-0.63416195
45	0x3f9c3117	1.2202481
46	0x3f32cfc1	0.6984826
47	0x3e5fb574	0.21846563
48	0x3eeffa34	0.46870577
49	0xbee2e023	-0.44311628
50	0xbf92b56e	-1.1461618
51	0xbf4319a0	-0.76210976
52	0xbf99986a	-1.1999638
53	0xbe8dd5b9	-0.2770212
54	0x3da95cb6	0.08269636
55	0xbf123138	-0.5710635
56	0xbf7776a2	-0.96665394
57	0xbe64fd2f	-0.22362207
58	0x3dec2703	0.115308784
59	0x3db5d35a	0.08878203
60	0xbf2019b0	-0.62539196
61	0xbf1d8dcc	-0.6154449
62	0x3f8a5614	1.0807519
63	0x3f1d8a9a	0.61539614
64	0xbf3a65f6	-0.7281183
65	0xbf584f04	-0.8449557
66	0x3e8895b5	0.26676717
67	0x3f5a89ec	0.853667
68	0xbea3583f	-0.31903264
69	0xbfa167db	-1.2609819
70	0xbe9fa235	-0.31178442
71	0x3f2595e1	0.6468182
72	0xbd4caa5b	-0.04996715
73	0xbecea5dd	-0.4036092
74	0xbe62bf6c	-0.22143334
75	0xbd026ddd	-0.031843055
76	0x3ea31d10	0.3185811
77	0x3d788986	0.060678028
78	0xb86a4a2a	-5.5859018e-05
79	0x3f76e7e9	0.96447617
80	0xbf85683d	-1.0422436
81	0x3f2db7dc	0.6785867
82	0x3f464f06	0.7746433
83	0x3f3af6c4	0.73032784
84	0xbc457c4d	-0.012053561
85	0xbff9dc02	-1.9520266
86	0xbfae31fc	-1.3609004
87	0xbe8c2001	-0.27368167
88	0x3dadf030	0.08493078
89	0xbf5776d8	-0.84165716
90	0xbec62d23	-0.38706312
91	0xbfc45600	-1.5338745
92	0xbfe0123a	-1.7505562
93	0xbfc8a0b3	-1.5674042
94	0xbf685ecb	-0.9076964
95	0x3fb36397	1.4014767
96	0xbe09dfd9	-0.13464297
97	0xbe818382	-0.25295645
98	0x3dbedbdf	0.09319281
99	0x3db8bbd4	0.090202
100	0xbd567b62	-0.05236376
101	0x3efecd63	0.49766073
102	0x3ec4101b	0.38293537
103	0xbe1ffe1f	-0.15624283
104	0xbfd07a14	-1.6287255
105	0xbe9e8589	-0.30961254
106	0x3ee6a91f	0.45050904
107	0x3f3c94a4	0.7366431
108	0xbed8c0f9	-0.42334726
109	0xbf3f67e8	-0.74767923
110	0x3cf1a71b	0.029498627
111	0x3f4849b4	0.7823746
112	0x3f08d71f	0.5345325
113	0xbeaa79ea	-0.33296138
114	0xbe596b6f	-0.21232389
115	0x3f2f4c39	0.6847568
116	0x3e8b7d31	0.2724395
117	0x3da74908	0.081682265
118	0xbf186b82	-0.59539044
119	0xbe8c36ee	-0.27385658
120	0x3f825275	1.0181414
121	0x3edb7ee5	0.4287025
122	0xbda50509	-0.08057601
123	0xbe7b420b	-0.24536912
124	0xbed47105	-0.41492477
125	0xbeed3c66	-0.46335143
126	0xbec9554f	-0.39322898
127	0x3e3bff50	0.18359113
128	0xbe28f4f2	-0.16499689
129	0xbddd2c71	-0.10799492
130	0x3c23461b	0.009965445
131	0xbf3a7911	-0.7284098
132	0xbf880b41	-1.0628434
133	0xbf696a2d	-0.91177636
134	0xbf3c7eb3	-0.7363083
135	0x3f99837f	1.1993254
136	0x3f06a628	0.52597284
137	0xbe3dd529	-0.18538345
138	0xbebfb650	-0.3744378
139	0xbd3544eb	-0.04425518
140	0x3f184fe1	0.59496886
141	0x3f29fd8e	0.6640252
142	0x3f35a560	0.7095547
143	0x3e989d32	0.2980743
144	0x3e3b5950	0.18295789
145	0xbeb627f4	-0.35577357
146	0xbefffd14	-0.4999777
147	0x3e559766	0.20858535
148	0x3f643d48	0.8915601
149	0x3f568ec2	0.8381158
150	0xbe5c620f	-0.21521781
151	0x3fceae0d	1.6146866
152	0x3f73c068	0.95215464
153	0xbedeae66	-0.4349243
154	0xbf944158	-1.1582441
155	0xbd072824	-0.032997265
156	0x3fa55d2a	1.2919056
157	0xbec9a4d8	-0.39383578
158	0xbfc14e69	-1.5102054
159	0xbe2d20ff	-0.16907118
160	0x3cf369c5	0.02971352
161	0x3f4eb59d	0.8074587
162	0xbf557557	-0.8338217
163	0xbddcee4c	-0.10787639
164	0x3f8bdfc4	1.0927663
165	0x3e36e265	0.178598
166	0x3f2dfa3c	0.6795995
167	0x3ec8d1b3	0.39222488
168	0x3edf8da5	0.43662754
169	0x3fcd6a76	1.6048114
170	0x3e1a044a	0.15040699
171	0x3e0326d0	0.12807775
172	0x3eb1f718	0.3475883
173	0xbe86b17c	-0.26307285
174	0x3ebb8d67	0.3663132
175	0x3bdf83cd	0.006821132
176	0x3f0da753	0.5533344
177	0x3f8500b9	1.0390846
178	0xbe4d0f56	-0.20025381
179	0xbfd5363c	-1.6657176
180	0xbf84d427	-1.0377244
181	0x3f1f6258	0.62259436
182	0x3e1dee13	0.1542285
183	0xbfc2a7a9	-1.5207416
184	0xbeb9eb63	-0.36312398
185	0xbfc29460	-1.520153
186	0xbf8e683f	-1.1125563
187	0xbf8edf16	-1.116183
188	0xbfa5f202	-1.296448
189	0x3f63e2de	0.89018047
190	0xbec3f7cf	-0.38275
191	0xbf4d1fd9	-0.8012672
192	0xbf6dd163	-0.92897624
193	0xbf09f8f5	-0.53895503
194	0x3f6afc1f	0.91790956
195	0x3ed90bfa	0.4239195
196	0x3f041f63	0.5161039
197	0xbed03c15	-0.4067084
198	0xbf41ba23	-0.7567465
199	0xbfafd5ef	-1.3737162
200	0x3e9b9a83	0.3039132
201	0x3e144a57	0.14481483
202	0x3e881f42	0.26586348
203	0x3e4246a6	0.18972263
204	0xbd5d1145	-0.053971548
205	0x3e2e248a	0.17006126
206	0x3d87613f	0.06610345
207	0x3b902583	0.004399003
208	0xbdaa49fe	-0.08314894
209	0x3ecf4b90	0.40487337
210	0xbea7f209	-0.32801846
211	0xbe7d47a4	-0.2473436
212	0x3da4d798	0.08048934
213	0x3dcf98f4	0.10136595
214	0x3eb525d3	0.3538042
215	0xbeaab369	-0.33340004
216	0xbe963afb	-0.29341874
217	0xbea84953	-0.32868442
218	0xbeef96d8	-0.46794772
219	0xbf072ab8	-0.5279956
220	0xbe8e994c	-0.2785133
221	0xbf2f886b	-0.6856753
222	0xbf3872b0	-0.7205
223	0xbefa0cd8	-0.48837924
224	0xbf20e2f8	-0.62846327
225	0xbfc36770	-1.5265942
226	0xbf3f684d	-0.74768525
227	0xbe6aa3e2	-0.22914079
228	0xbf525b8e	-0.8217095
229	0x3d58c13a	0.05291865
230	0xbed13ed1	-0.40868238
231	0x3e81c5c8	0.25346208
232	0xbf316728	-0.6929803
233	0xbf018ea3	-0.5060827
234	0xbc48445e	-0.012223331
235	0x3ff8b50c	1.9430251
236	0x3f6c9a94	0.9242337
237	0xbf099198	-0.53737783
238	0xbeb69900	-0.35663605
239	0xbf1ad839	-0.6048618
240	0xbf2e513c	-0.68092704
241	0xbf8ded31	-1.108801
242	0xbf0e2ad0	-0.55534077
243	0xbe9a3801	-0.30120853
244	0xbe9cb59c	-0.30607307
245	0xbf9378c4	-1.152123
246	0xbef45aa2	-0.47725397
247	0xbf0fd1c5	-0.5617946
248	0xbe300ffe	-0.171936
249	0xbe29d13c	-0.16583723
250	0x3ee98ac7	0.4561369
251	0x3e5720fe	0.2100868
252	0x3b371231	0.0027934427
253	0x3e815a43	0.25264177
254	0x3f6f4b0b	0.9347388
255	0x3ec9f0b3	0.3944145

bias f4 [32]
0	0xbed9e242	-0.42555434
1	0xbe95ce10	-0.29258776
2	0xbe6145e2	-0.21999314
3	0x3eb5f8a8	0.35541272
4	0xbd80ad04	-0.06283
5	0xbb22238c	-0.0024740426
6	0x3f0c15a2	0.5472051
7	0x3df3040c	0.11866006
8	0x3e9a7dca	0.30174094
9	0xbdc1f07d	-0.094696976
10	0x3ebb5f04	0.3659593
11	0x3ce0655c	0.027392082
12	0xbeb6c982	-0.35700613
13	0xbd9c6001	-0.07635499
14	0x3efffdb3	0.49998245
15	0xbd88cc55	-0.06679598
16	0xbea29544	-0.31754506
17	0xbea0fe40	-0.31443977
18	0xbeb00fa4	-0.34386933
19	0x3ea2e0b6	0.31812066
20	0xbdd5f5fa	-0.10447307
21	0x3ec48da8	0.38389325
22	0x3d0a734f	0.033801373
23	0x3e98745e	0.2977628
24	0xbe689bd2	-0.2271569
25	0x3e4f8153	0.20264177
26	0x3e1490d7	0.14508377
27	0x3c541b6e	0.012945993
28	0xbe84931a	-0.2589348
29	0xbe7aa8fd	-0.24478526
30	0x3d5f45ae	0.05450981
31	0xbf0a2a48	-0.53970766

weight f4 [32]
0	0x3f7bc582	0.9834825
1	0x3f0519e8	0.51992655
2	0x3f4e0a07	0.8048405
3	0x3f30c299	0.6904693
4	0x3ebf3ee8	0.3735268
5	0x3e366d0e	0.17815039
6	0x3ef09daa	0.46995288
7	0x3fa55f69	1.2919742
8	0x3e9338d5	0.28754297
9	0x3faa9167	1.3325623
10	0x3e974758	0.29546618
11	0x3f0e9a20	0.55703926
12	0x3f518d18	0.81855917
13	0x3f7b017d	0.98049146
14	0x3ee4cc8e	0.44687313
15	0x3f1f1735	0.62144786
16	0x3f660201	0.8984681
17	0x3eb4a63d	0.3528308
18	0x3ee5aa81	0.44856647
19	0x3f2e614e	0.68117225
20	0x3f44b5cb	0.76839894
21	0x3f3233ec	0.69610476
22	0x3f753ed4	0.95798993
23	0x3f4ff185	0.81227905
24	0x3edfd808	0.43719506
25	0x3f66d83d	0.90173703
26	0x3f32343a	0.6961094
27	0x3f15d927	0.58534473
28	0x3eaa93e0	0.33315945
29	0x3eb23b4f	0.34810874
30	0x3eb4d591	0.35319188
31	0x3f8157c8	1.0104914

bias f4 [32]
0	0xbf1126a7	-0.56699604
1	0xbfb8360e	-1.4391496
2	0xbf198832	-0.5997344
3	0xbed5952c	-0.41715372
4	0xbf65073b	-0.8946416
5	0xbf85cfd9	-1.0454055
6	0xbfcd1759	-1.602275
7	0xbf57523a	-0.8410984
8	0xbf3aa421	-0.7290669
9	0xbf864136	-1.0488651
10	0xbf94993d	-1.1609265
11	0xbf264323	-0.6494619
12	0xbf05d070	-0.52271175
13	0xbf0dd11f	-0.5539722
14	0xbf93871f	-1.1525611
15	0xbf330cf4	-0.6994164
16	0xbf671db3	-0.9027969
17	0xbf894bb2	-1.0726225
18	0xbf13abd1	-0.57684046
19	0xbf365b05	-0.71232635
20	0xbf063242	-0.5242044
21	0xbf391bc4	-0.7230799
22	0xbf104881	-0.5636063
23	0xbf0de364	-0.55425096
24	0xbf3ed87f	-0.74549097
25	0xbf1cf250	-0.6130724
26	0xbeec055b	-0.46097836
27	0xbf41c60c	-0.7569282
28	0xbfb78f1b	-1.4340547
29	0xbee1610f	-0.44019362
30	0xbeb6e698	-0.35722804
31	0xbf3b6642	-0.7320291

running_mean f4 [32]
0	0xbfe5f089	-1.796403
1	0x3cf11d7f	0.02943301
2	0xbf8e0499	-1.1095153
3	0xbf0b9366	-0.5452179
4	0xbbd6ee49	-0.0065591675
5	0x3d0c8205	0.034303684
6	0x3f99555c	1.1979175
7	0xbf9743c7	-1.1817559
8	0xbe1204fc	-0.14259714
9	0xbf9f3209	-1.2437145
10	0x3d0d3505	0.03447439
11	0xbf4bc4e0	-0.7959728
12	0xbf9ea4a1	-1.2393991
13	0xbf84df73	-1.0380691
14	0x3f17c8a3	0.5929052
15	0xbf84d19d	-1.0376469
16	0xbfc94747	-1.5724877
17	0xbd3b2fde	-0.045699947
18	0xbf99849b	-1.1993593
19	0xbf3c3870	-0.73523617
20	0xbf970668	-1.179883
21	0xbf3fe871	-0.7496405
22	0xbf926672	-1.1437514
23	0xbf88f77b	-1.0700525
24	0xbf8b623a	-1.0889351
25	0xbf83648e	-1.0265062
26	0xbf0e246d	-0.5552433
27	0xbf47df38	-0.7807498
28	0x3fa42f24	1.2826886
29	0xbf442601	-0.7662049
30	0xbf15ac74	-0.5846627
31	0xbfb93e8b	-1.4472212

running_var f4 [32]
0	0x40ec2d36	7.380519
1	0x3fd33331	1.6499997
2	0x40296666	2.646875
3	0x407f93c9	3.993395
4	0x3fce4011	1.6113302
5	0x3f7c9386	0.986626
6	0x3ffc74d6	1.9723155
7	0x40b12b39	5.536526
8	0x3f8bc6d9	1.0920058
9	0x40678547	3.6175096
10	0x3fb48af2	1.4104903
11	0x40664e7b	3.59854
12	0x405a617e	3.4122005
13	0x4069aaba	3.6510453
14	0x3f471283	0.7776262
15	0x40342fbb	2.8154132
16	0x40a8b67d	5.2722764
17	0x3f80b328	1.0054674
18	0x4014e668	2.326563
19	0x409b1400	4.8461914
20	0x40904efa	4.5096407
21	0x40734505	3.8010876
22	0x40de07b3	6.93844
23	0x4099bbb5	4.8041635
24	0x4057404d	3.3632996
25	0x40929cd4	4.581644
26	0x4041bf4b	3.0273006
27	0x409820a9	4.753987
28	0x40fca8b6	7.8955946
29	0x3fbdd861	1.4831659
30	0x401452e1	2.3175585
31	0x4021806c	2.5234632

weight f4 [10, 6272]
0	0x3db89efb	0.09014698
1	0x3db80c2a	0.08986695
2	0x3da18d6d	0.07888303
3	0x3da1dcf2	0.0790347
4	0x3d723aee	0.05913823
5	0xbe536f7f	-0.20648001
6	0x3e1fecb8	0.15617645
7	0x382361b5	3.8953225e-05
8	0xbc8bce9d	-0.017066294
9	0xbe4bc757	-0.19900261
10	0xbd8a0ec6	-0.06741099
11	0xbddab43d	-0.10678909
12	0x3e838fb1	0.25695565
13	0x3d61e30c	0.05514817
14	0x3daba622	0.08381297
15	0xbd26b263	-0.040697467
16	0x3e50aef5	0.20379241
17	0x3f0b9b30	0.5453367
18	0xbe6afa36	-0.2294701
19	0xbf5a97a7	-0.85387653
20	0xbf151301	-0.5823212
21	0x3ebee437	0.3728349
22	0x3d7c26e4	0.061560526
23	0xbf68aa90	-0.9088526
24	0xbdfd7269	-0.12375338
25	0xbe810b2b	-0.25203833
26	0x3f0eb3e9	0.5574327
27	0xbecadaaa	-0.39619952
28	0x3dad1bea	0.0845259
29	0xbeae9b1e	-0.3410272
30	0xbea28872	-0.31744725
31	0x3ea3a70d	0.31963387
32	0xbf70d402	-0.940735
33	0xbfca2c82	-1.5794833
34	0xbf9cc1a3	-1.2246593
35	0x3e67e5c5	0.22646244
36	0x3e16f10e	0.14740393
37	0xbf95a85d	-1.1692005
38	0xbd4b9814	-0.04970558
39	0xbed29cc5	-0.4113523
40	0x3f3af3df	0.7302837
41	0xbd59ae2f	-0.05314463
42	0x3d9e31c9	0.077243395
43	0x3dd4d700	0.103925705
44	0xbe09ebd2	-0.13468865
45	0xbe9d3f67	-0.30712435
46	0xbfcffe45	-1.6249472
47	0xbfbd0b16	-1.4769008
48	0xbfb13091	-1.3842946
49	0xbfaecc27	-1.3656052
50	0x3e19890c	0.14993685
51	0x3f6a7344	0.9158213
52	0x3f429381	0.76006323
53	0x3bc6eb9d	0.0060705678
54	0x3ec5ec35	0.38656774
55	0x3e626aaf	0.22111009
56	0x3e4ce353	0.20008592
57	0x3de6ad0e	0.11263476
58	0xbdd227e2	-0.10261513
59	0xbf39205d	-0.7231501
60	0xbe6911c8	-0.2276069
61	0xbd798247	-0.060915258
62	0xbde53a00	-0.11192703
63	0x3ee36955	0.444163
64	0x3e479203	0.19489293
65	0x3f54cdf3	0.83126754
66	0x3f44bda7	0.76851887
67	0x3f83a0e4	1.0283475
68	0x3f87e798	1.0617552
69	0xbdb20e83	-0.08694174
70	0x3d9feecb	0.07809218
71	0x3dd5a1e5	0.104312696
72	0x3eb8d4d7	0.36099884
73	0xbdca738c	-0.0988532
74	0xbd4bbfcc	-0.04974346
75	0x3de68902	0.11256601
76	0x3eb95941	0.36200908
77	0x3f6f8259	0.9355827
78	0x3fe8a3e2	1.8175013
79	0x401ecd4e	2.4812808
80	0x3e2ac013	0.16674833
81	0x3d9df393	0.07712474
82	0x3ef81f34	0.48461306
83	0x3e2dba24	0.16965538
84	0x3e45a469	0.19300999
85	0x3eafac87	0.34311315
86	0x3f2e5744	0.68101907
87	0xbdd206c2	-0.10255195
88	0xbe7d2b17	-0.24723469
89	0x3f8f2125	1.118199
90	0x3ef589f8	0.47956824
91	0x3f377c59	0.71674114
92	0x3f9dad96	1.2318599
93	0x3d8e7d29	0.06957466
94	0x3dff51a0	0.124667406
95	0x3e90b97a	0.28266507
96	0x3f179879	0.5921703
97	0x3e847975	0.25873914
98	0xbd852f67	-0.06503182
99	0x3e9290e8	0.2862618
100	0x3dc5b3ab	0.096534096
101	0x3e98748f	0.29776427
102	0xbe8ee7b2	-0.27911144
103	0x3d43d39f	0.04780924
104	0x3f32dab4	0.69864964
105	0x3f92f484	1.148087
106	0x3f8301b5	1.0234896
107	0xbe76896e	-0.24075863
108	0xbf7817fa	-0.96911585
109	0xbea7699d	-0.32697764
110	0x3e861b8c	0.26192892
111	0x3eb69017	0.35656807
112	0xbec8ffb7	-0.39257595
113	0xbebbbf8d	-0.3666958
114	0x3e01508d	0.12628384
115	0x3dafe90b	0.08589371
116	0xbe261af0	-0.16221213
117	0x3f80d51c	1.0065036
118	0x3f99ea9c	1.2024722
119	0x3f1a84e7	0.6035904
120	0xbd35b722	-0.044364102
121	0xbdbd533f	-0.092443936
122	0xbf48efa9	-0.7849069
123	0xbeae9832	-0.3410049
124	0xbcdf40ac	-0.027252518
125	0x3e25457c	0.16139787
126	0xbf10c5b6	-0.5655168
127	0xbdbb6954	-0.09150949
128	0xbe12adbe	-0.1432409
129	0xbef4c0e8	-0.47803426
130	0x3f6e9784	0.93199944
131	0x3f85d0eb	1.0454382
132	0x3fc8324d	1.564035
133	0x3e651a2c	0.22373265
134	0xbefd58ec	-0.49481905
135	0xbff80691	-1.9377004
136	0xbf03432c	-0.5127437
137	0xbf244d5c	-0.6418054
138	0xbebdddc8	-0.37083268
139	0xbdc9af61	-0.09847904
140	0xbea853c9	-0.32876423
141	0x3e343603	0.17598729
142	0xbd9c6581	-0.07636548
143	0xbf2805f4	-0.65634084
144	0x3f8f5081	1.1196443
145	0x3f665113	0.8996746
146	0x3f9f995f	1.246868
147	0xbf2ab5b3	-0.666835
148	0xc015d87b	-2.341338
149	0xbfeeb29d	-1.8648258
150	0xbf902372	-1.1260817
151	0xbfac14ec	-1.3443885
152	0xbe2fce2a	-0.17168489
153	0xbecf38b2	-0.40472943
154	0x3ec017ff	0.37518308
155	0x3ec75f88	0.38940072
156	0x3e4f1941	0.20224477
157	0x3e4a9a90	0.19785523
158	0xbfa6b715	-1.3024622
159	0xbf7d4a30	-0.98941326
160	0xbf0cde07	-0.55026287
161	0xc0034358	-2.0509853
162	0xc0579a69	-3.3687994
163	0xbfd915b6	-1.6959751
164	0xbfb3930c	-1.402925
165	0xbfa1dbf4	-1.2645249
166	0x3e250a00	0.16117096
167	0xbe8f84a9	-0.280309
168	0x3d8da34a	0.069159105
169	0x3eda3f75	0.4262654
170	0xbefa17e9	-0.48846367
171	0xbf503a81	-0.8133927
172	0xbfee324f	-1.8609103
173	0xbfb5c43f	-1.4200515
174	0xbf8e01bc	-1.1094279
175	0xbf929008	-1.1450205
176	0xbf04efe9	-0.51928574
177	0xbf1475f0	-0.5799246
178	0x3cd12a7d	0.025532955
179	0xbe4569f0	-0.19278693
180	0x3d7f370c	0.062308356
181	0x3dbc279c	0.091872424
182	0x3db5b683	0.08872702
183	0x3dae26e2	0.0850351
184	0xbd2f7bca	-0.042842664
185	0x3cf8c568	0.030367568
186	0xbd23d4e3	-0.039997946
187	0xbe659049	-0.22418322
188	0xbd944b5a	-0.07240935
189	0xbe0e7fac	-0.1391589
190	0x3dabc9b1	0.08388079
191	0x3d492c99	0.049114797
192	0x3dda34f4	0.10654631
193	0x3dc2836b	0.09497722
194	0x3d9b52dc	0.075841635
195	0x3dbb0077	0.09130948
196	0xbc433f98	-0.011917017
197	0x3bdae6d0	0.006680347
198	0xbace5560	-0.0015741996
199	0x3aa3b390	0.0012489427
200	0xbd842852	-0.06453003
201	0xbd7a0850	-0.061043084
202	0xbd8b1c5e	-0.0679252
203	0xba446b70	-0.0007492816
204	0xbd65500f	-0.055984553
205	0xbda25aec	-0.07927498
206	0xbd99752f	-0.07493054
207	0xbd7fa1a8	-0.062410027
208	0x3bb5e386	0.0055508045
209	0xbb0ee1ec	-0.002180214
210	0x392dd180	0.0001657661
211	0xbc3711b6	-0.011173656
212	0xbdc1ef3e	-0.0946946
213	0xbe2193e6	-0.15779075
214	0xbe358939	-0.17728128
215	0x3e7434b2	0.23848227
216	0xbde28e43	-0.110622905
217	0xbd90731e	-0.07053207
218	0xbb0c08c4	-0.002136753
219	0xbba4453e	-0.005013137
220	0xbc75552a	-0.014973918
221	0xbd579567	-0.052632716
222	0xbdcc6afa	-0.09981342
223	0xbdc2cc74	-0.095116526
224	0x3be7c11c	0.007072581
225	0xbd34b57f	-0.0441184
226	0xbe4dcfc8	-0.20098794
227	0x3f0a1a22	0.53946126
228	0x3f8e43b4	1.1114411
229	0x3e340b9c	0.17582554
230	0xbe28c3d6	-0.16480955
231	0xbda61267	-0.08108979
232	0x3ea2415a	0.31690484
233	0xbd7723af	-0.060336765
234	0x3e8d2994	0.27570784
235	0xbe838c28	-0.25692868
236	0xbee85bf6	-0.4538266
237	0xbe0a6988	-0.1351682
238	0xbc0b6fac	-0.008510511
239	0xbda04f72	-0.07827653
240	0xbef9d5a1	-0.48795798
241	0xbe31b319	-0.17353477
242	0xbdc1dc4a	-0.09465845
243	0xbf1c5805	-0.6107181
244	0x3ed6e7b6	0.41973656
245	0x3d3e3101	0.046433453
246	0xbe3a3480	-0.1818409
247	0x3c7780c2	0.015106382
248	0x3e97fda8	0.29685712
249	0xbf2a62e8	-0.6655717
250	0xbe29b4d7	-0.16572891
251	0x3c052bf0	0.008128151
252	0xbe91ebb6	-0.28500146
253	0xbd8769d1	-0.0661198
254	0x3e218808	0.15774548
255	0x3f15332e	0.5828122

bias f4 [10]
0	0x3df09215	0.11746613
1	0x3f8dafbd	1.1069256
2	0x3eb45a06	0.35224932
3	0xbf205182	-0.6262437
4	0xbe3e6c28	-0.18595946
5	0x3d8bba28	0.06822616
6	0x3dd4bd7f	0.10387706
7	0x3ea8dafc	0.32979572
8	0xbf02078f	-0.50792783
9	0xbe8740d9	-0.26416662
